…
95/107 FeatureConcat - [16, 256, 26, 26]  >> layer 94 [16, 255, 26, 26] + layer -4 [16, 256, 26, 26]
96/107 Sequential - [16, 128, 26, 26]
97/107 Upsample - [16, 128, 52, 52]
98/107 FeatureConcat - [16, 384, 52, 52]  >> layer 97 [16, 128, 52, 52] + layer -1 [16, 128, 52, 52] + layer 36 [16, 256, 52, 52]
99/107 Sequential - [16, 128, 52, 52]
100/107 Sequential - [16, 256, 52, 52]
101/107 Sequential - [16, 128, 52, 52]
102/107 Sequential - [16, 256, 52, 52]
103/107 Sequential - [16, 128, 52, 52]
104/107 Sequential - [16, 256, 52, 52]
105/107 Sequential - [16, 255, 52, 52]
106/107 YOLOLayer - [16, 255, 52, 52]







model = Darknet(
  (module_list): ModuleList(
    (0): Sequential(
      (0): Conv2d(3, 32, kernel_size=(3, 3), stride=(1, 1), padding=(1, 1))
      (1): LeakyReLU(negative_slope=0.1, inplace=True)
    )
    (1): Sequential(
      (0): Conv2d(32, 64, kernel_size=(3, 3), stride=(2, 2), padding=(1, 1))
      (1): LeakyReLU(negative_slope=0.1, inplace=True)
    )
    (2): Sequential(
      (0): Conv2d(64, 32, kernel_size=(1, 1), stride=(1, 1))
      (1): LeakyReLU(negative_slope=0.1, inplace=True)
    )
    (3): Sequential(
      (0): Conv2d(32, 64, kernel_size=(3, 3), stride=(1, 1), padding=(1, 1))
      (1): LeakyReLU(negative_slope=0.1, inplace=True)
    )
    (4): WeightedFeatureFusion()
    (5): Sequential(
      (0): Conv2d(64, 128, kernel_size=(3, 3), stride=(2, 2), padding=(1, 1))
      (1): LeakyReLU(negative_slope=0.1, inplace=True)
    )
    (6): Sequential(
      (0): Conv2d(128, 64, kernel_size=(1, 1), stride=(1, 1))
      (1): LeakyReLU(negative_slope=0.1, inplace=True)
    )
    (7): Sequential(
      (0): Conv2d(64, 128, kernel_size=(3, 3), stride=(1, 1), padding=(1, 1))
      (1): LeakyReLU(negative_slope=0.1, inplace=True)
    )
    (8): WeightedFeatureFusion()
    (9): Sequential(
      (0): Conv2d(128, 64, kernel_size=(1, 1), stride=(1, 1))
      (1): LeakyReLU(negative_slope=0.1, inplace=True)
    )
    (10): Sequential(
      (0): Conv2d(64, 128, kernel_size=(3, 3), stride=(1, 1), padding=(1, 1))
      (1): LeakyReLU(negative_slope=0.1, inplace=True)
    )
    (11): WeightedFeatureFusion()
    (12): Sequential(
      (0): Conv2d(128, 256, kernel_size=(3, 3), stride=(2, 2), padding=(1, 1))
      (1): LeakyReLU(negative_slope=0.1, inplace=True)
    )
    (13): Sequential(
      (0): Conv2d(256, 128, kernel_size=(1, 1), stride=(1, 1))
      (1): LeakyReLU(negative_slope=0.1, inplace=True)
    )
    (14): Sequential(
      (0): Conv2d(128, 256, kernel_size=(3, 3), stride=(1, 1), padding=(1, 1))
      (1): LeakyReLU(negative_slope=0.1, inplace=True)
    )
    (15): WeightedFeatureFusion()
    (16): Sequential(
      (0): Conv2d(256, 128, kernel_size=(1, 1), stride=(1, 1))
      (1): LeakyReLU(negative_slope=0.1, inplace=True)
    )
    (17): Sequential(
      (0): Conv2d(128, 256, kernel_size=(3, 3), stride=(1, 1), padding=(1, 1))
      (1): LeakyReLU(negative_slope=0.1, inplace=True)
    )
    (18): WeightedFeatureFusion()
    (19): Sequential(
      (0): Conv2d(256, 128, kernel_size=(1, 1), stride=(1, 1))
      (1): LeakyReLU(negative_slope=0.1, inplace=True)
    )
    (20): Sequential(
      (0): Conv2d(128, 256, kernel_size=(3, 3), stride=(1, 1), padding=(1, 1))
      (1): LeakyReLU(negative_slope=0.1, inplace=True)
    )
    (21): WeightedFeatureFusion()
    (22): Sequential(
      (0): Conv2d(256, 128, kernel_size=(1, 1), stride=(1, 1))
      (1): LeakyReLU(negative_slope=0.1, inplace=True)
    )
    (23): Sequential(
      (0): Conv2d(128, 256, kernel_size=(3, 3), stride=(1, 1), padding=(1, 1))
      (1): LeakyReLU(negative_slope=0.1, inplace=True)
    )
    (24): WeightedFeatureFusion()
    (25): Sequential(
      (0): Conv2d(256, 128, kernel_size=(1, 1), stride=(1, 1))
      (1): LeakyReLU(negative_slope=0.1, inplace=True)
    )
    (26): Sequential(
      (0): Conv2d(128, 256, kernel_size=(3, 3), stride=(1, 1), padding=(1, 1))
      (1): LeakyReLU(negative_slope=0.1, inplace=True)
    )
    (27): WeightedFeatureFusion()
    (28): Sequential(
      (0): Conv2d(256, 128, kernel_size=(1, 1), stride=(1, 1))
      (1): LeakyReLU(negative_slope=0.1, inplace=True)
    )
    (29): Sequential(
      (0): Conv2d(128, 256, kernel_size=(3, 3), stride=(1, 1), padding=(1, 1))
      (1): LeakyReLU(negative_slope=0.1, inplace=True)
    )
    (30): WeightedFeatureFusion()
    (31): Sequential(
      (0): Conv2d(256, 128, kernel_size=(1, 1), stride=(1, 1))
      (1): LeakyReLU(negative_slope=0.1, inplace=True)
    )
    (32): Sequential(
      (0): Conv2d(128, 256, kernel_size=(3, 3), stride=(1, 1), padding=(1, 1))
      (1): LeakyReLU(negative_slope=0.1, inplace=True)
    )
    (33): WeightedFeatureFusion()
    (34): Sequential(
      (0): Conv2d(256, 128, kernel_size=(1, 1), stride=(1, 1))
      (1): LeakyReLU(negative_slope=0.1, inplace=True)
    )
    (35): Sequential(
      (0): Conv2d(128, 256, kernel_size=(3, 3), stride=(1, 1), padding=(1, 1))
      (1): LeakyReLU(negative_slope=0.1, inplace=True)
    )
    (36): WeightedFeatureFusion()
    (37): Sequential(
      (0): Conv2d(256, 512, kernel_size=(3, 3), stride=(2, 2), padding=(1, 1))
      (1): LeakyReLU(negative_slope=0.1, inplace=True)
    )
    (38): Sequential(
      (0): Conv2d(512, 256, kernel_size=(1, 1), stride=(1, 1))
      (1): LeakyReLU(negative_slope=0.1, inplace=True)
    )
    (39): Sequential(
      (0): Conv2d(256, 512, kernel_size=(3, 3), stride=(1, 1), padding=(1, 1))
      (1): LeakyReLU(negative_slope=0.1, inplace=True)
    )
    (40): WeightedFeatureFusion()
    (41): Sequential(
      (0): Conv2d(512, 256, kernel_size=(1, 1), stride=(1, 1))
      (1): LeakyReLU(negative_slope=0.1, inplace=True)
    )
    (42): Sequential(
      (0): Conv2d(256, 512, kernel_size=(3, 3), stride=(1, 1), padding=(1, 1))
      (1): LeakyReLU(negative_slope=0.1, inplace=True)
    )
    (43): WeightedFeatureFusion()
    (44): Sequential(
      (0): Conv2d(512, 256, kernel_size=(1, 1), stride=(1, 1))
      (1): LeakyReLU(negative_slope=0.1, inplace=True)
    )
    (45): Sequential(
      (0): Conv2d(256, 512, kernel_size=(3, 3), stride=(1, 1), padding=(1, 1))
      (1): LeakyReLU(negative_slope=0.1, inplace=True)
    )
    (46): WeightedFeatureFusion()
    (47): Sequential(
      (0): Conv2d(512, 256, kernel_size=(1, 1), stride=(1, 1))
      (1): LeakyReLU(negative_slope=0.1, inplace=True)
    )
    (48): Sequential(
      (0): Conv2d(256, 512, kernel_size=(3, 3), stride=(1, 1), padding=(1, 1))
      (1): LeakyReLU(negative_slope=0.1, inplace=True)
    )
    (49): WeightedFeatureFusion()
    (50): Sequential(
      (0): Conv2d(512, 256, kernel_size=(1, 1), stride=(1, 1))
      (1): LeakyReLU(negative_slope=0.1, inplace=True)
    )
    (51): Sequential(
      (0): Conv2d(256, 512, kernel_size=(3, 3), stride=(1, 1), padding=(1, 1))
      (1): LeakyReLU(negative_slope=0.1, inplace=True)
    )
    (52): WeightedFeatureFusion()
    (53): Sequential(
      (0): Conv2d(512, 256, kernel_size=(1, 1), stride=(1, 1))
      (1): LeakyReLU(negative_slope=0.1, inplace=True)
    )
    (54): Sequential(
      (0): Conv2d(256, 512, kernel_size=(3, 3), stride=(1, 1), padding=(1, 1))
      (1): LeakyReLU(negative_slope=0.1, inplace=True)
    )
    (55): WeightedFeatureFusion()
    (56): Sequential(
      (0): Conv2d(512, 256, kernel_size=(1, 1), stride=(1, 1))
      (1): LeakyReLU(negative_slope=0.1, inplace=True)
    )
    (57): Sequential(
      (0): Conv2d(256, 512, kernel_size=(3, 3), stride=(1, 1), padding=(1, 1))
      (1): LeakyReLU(negative_slope=0.1, inplace=True)
    )
    (58): WeightedFeatureFusion()
    (59): Sequential(
      (0): Conv2d(512, 256, kernel_size=(1, 1), stride=(1, 1))
      (1): LeakyReLU(negative_slope=0.1, inplace=True)
    )
    (60): Sequential(
      (0): Conv2d(256, 512, kernel_size=(3, 3), stride=(1, 1), padding=(1, 1))
      (1): LeakyReLU(negative_slope=0.1, inplace=True)
    )
    (61): WeightedFeatureFusion()
    (62): Sequential(
      (0): Conv2d(512, 1024, kernel_size=(3, 3), stride=(2, 2), padding=(1, 1))
      (1): LeakyReLU(negative_slope=0.1, inplace=True)
    )
    (63): Sequential(
      (0): Conv2d(1024, 512, kernel_size=(1, 1), stride=(1, 1))
      (1): LeakyReLU(negative_slope=0.1, inplace=True)
    )
    (64): Sequential(
      (0): Conv2d(512, 1024, kernel_size=(3, 3), stride=(1, 1), padding=(1, 1))
      (1): LeakyReLU(negative_slope=0.1, inplace=True)
    )
    (65): WeightedFeatureFusion()
    (66): Sequential(
      (0): Conv2d(1024, 512, kernel_size=(1, 1), stride=(1, 1))
      (1): LeakyReLU(negative_slope=0.1, inplace=True)
    )
    (67): Sequential(
      (0): Conv2d(512, 1024, kernel_size=(3, 3), stride=(1, 1), padding=(1, 1))
      (1): LeakyReLU(negative_slope=0.1, inplace=True)
    )
    (68): WeightedFeatureFusion()
    (69): Sequential(
      (0): Conv2d(1024, 512, kernel_size=(1, 1), stride=(1, 1))
      (1): LeakyReLU(negative_slope=0.1, inplace=True)
    )
    (70): Sequential(
      (0): Conv2d(512, 1024, kernel_size=(3, 3), stride=(1, 1), padding=(1, 1))
      (1): LeakyReLU(negative_slope=0.1, inplace=True)
    )
    (71): WeightedFeatureFusion()
    (72): Sequential(
      (0): Conv2d(1024, 512, kernel_size=(1, 1), stride=(1, 1))
      (1): LeakyReLU(negative_slope=0.1, inplace=True)
    )
    (73): Sequential(
      (0): Conv2d(512, 1024, kernel_size=(3, 3), stride=(1, 1), padding=(1, 1))
      (1): LeakyReLU(negative_slope=0.1, inplace=True)
    )
    (74): WeightedFeatureFusion()
    (75): Sequential(
      (0): Conv2d(1024, 512, kernel_size=(1, 1), stride=(1, 1))
      (1): LeakyReLU(negative_slope=0.1, inplace=True)
    )
    (76): Sequential(
      (0): Conv2d(512, 1024, kernel_size=(3, 3), stride=(1, 1), padding=(1, 1))
      (1): LeakyReLU(negative_slope=0.1, inplace=True)
    )
    (77): Sequential(
      (0): Conv2d(1024, 512, kernel_size=(1, 1), stride=(1, 1))
      (1): LeakyReLU(negative_slope=0.1, inplace=True)
    )
    (78): Sequential(
      (0): Conv2d(512, 1024, kernel_size=(3, 3), stride=(1, 1), padding=(1, 1))
      (1): LeakyReLU(negative_slope=0.1, inplace=True)
    )
    (79): Sequential(
      (0): Conv2d(1024, 512, kernel_size=(1, 1), stride=(1, 1))
      (1): LeakyReLU(negative_slope=0.1, inplace=True)
    )
    (80): Sequential(
      (0): Conv2d(512, 1024, kernel_size=(3, 3), stride=(1, 1), padding=(1, 1))
      (1): LeakyReLU(negative_slope=0.1, inplace=True)
    )
    (81): Sequential(
      (Conv2d): Conv2d(1024, 255, kernel_size=(1, 1), stride=(1, 1))
    )
    (82): YOLOLayer()
    (83): FeatureConcat()
    (84): Sequential(
      (0): Conv2d(512, 256, kernel_size=(1, 1), stride=(1, 1))
      (1): LeakyReLU(negative_slope=0.1, inplace=True)
    )
    (85): Upsample(scale_factor=2.0, mode=nearest)
    (86): FeatureConcat()
    (87): Sequential(
      (0): Conv2d(768, 256, kernel_size=(1, 1), stride=(1, 1))
      (1): LeakyReLU(negative_slope=0.1, inplace=True)
    )
    (88): Sequential(
      (0): Conv2d(256, 512, kernel_size=(3, 3), stride=(1, 1), padding=(1, 1))
      (1): LeakyReLU(negative_slope=0.1, inplace=True)
    )
    (89): Sequential(
      (0): Conv2d(512, 256, kernel_size=(1, 1), stride=(1, 1))
      (1): LeakyReLU(negative_slope=0.1, inplace=True)
    )
    (90): Sequential(
      (0): Conv2d(256, 512, kernel_size=(3, 3), stride=(1, 1), padding=(1, 1))
      (1): LeakyReLU(negative_slope=0.1, inplace=True)
    )
    (91): Sequential(
      (0): Conv2d(512, 256, kernel_size=(1, 1), stride=(1, 1))
      (1): LeakyReLU(negative_slope=0.1, inplace=True)
    )
    (92): Sequential(
      (0): Conv2d(256, 512, kernel_size=(3, 3), stride=(1, 1), padding=(1, 1))
      (1): LeakyReLU(negative_slope=0.1, inplace=True)
    )
    (93): Sequential(
      (Conv2d): Conv2d(512, 255, kernel_size=(1, 1), stride=(1, 1))
    )
    (94): YOLOLayer()
    (95): FeatureConcat()
    (96): Sequential(
      (0): Conv2d(256, 128, kernel_size=(1, 1), stride=(1, 1))
      (1): LeakyReLU(negative_slope=0.1, inplace=True)
    )
    (97): Upsample(scale_factor=2.0, mode=nearest)
    (98): FeatureConcat()
    (99): Sequential(
      (0): Conv2d(384, 128, kernel_size=(1, 1), stride=(1, 1))
      (1): LeakyReLU(negative_slope=0.1, inplace=True)
    )
    (100): Sequential(
      (0): Conv2d(128, 256, kernel_size=(3, 3), stride=(1, 1), padding=(1, 1))
      (1): LeakyReLU(negative_slope=0.1, inplace=True)
    )
    (101): Sequential(
      (0): Conv2d(256, 128, kernel_size=(1, 1), stride=(1, 1))
      (1): LeakyReLU(negative_slope=0.1, inplace=True)
    )
    (102): Sequential(
      (0): Conv2d(128, 256, kernel_size=(3, 3), stride=(1, 1), padding=(1, 1))
      (1): LeakyReLU(negative_slope=0.1, inplace=True)
    )
    (103): Sequential(
      (0): Conv2d(256, 128, kernel_size=(1, 1), stride=(1, 1))
      (1): LeakyReLU(negative_slope=0.1, inplace=True)
    )
    (104): Sequential(
      (0): Conv2d(128, 256, kernel_size=(3, 3), stride=(1, 1), padding=(1, 1))
      (1): LeakyReLU(negative_slope=0.1, inplace=True)
    )
    (105): Sequential(
      (Conv2d): Conv2d(256, 255, kernel_size=(1, 1), stride=(1, 1))
    )
    (106): YOLOLayer()
  )
)
